…
I0611 23:02:44.983804 107401 net.cpp:257] The NetState phase (0) differed from the phase (1) specified by a rule in layer mnist
I0611 23:02:44.983832 107401 net.cpp:257] The NetState phase (0) differed from the phase (1) specified by a rule in layer accuracy
I0611 23:02:44.983937 107401 net.cpp:42] Initializing net from parameters: 
name: "LeNet"
state {
  phase: TRAIN
}
layer {
  name: "mnist"
  type: "Data"
  top: "data"
  top: "label"
  include {
    phase: TRAIN
  }
  transform_param {
    scale: 0.00390625
  }
  data_param {
    source: "examples/mnist/mnist_train_lmdb"
    batch_size: 64
    backend: LMDB
  }
}
layer {
  name: "conv1"
  type: "Convolution"
  bottom: "data"
  top: "conv1"
  param {
    lr_mult: 1
  }
  param {
    lr_mult: 2
  }
  convolution_param {
    num_output: 20
    kernel_size: 5
    stride: 1
    weight_filler {
      type: "xavier"
    }
    bias_filler {
      type: "constant"
    }
  }
}
layer {
  name: "pool1"
  type: "Pooling"
  bottom: "conv1"
  top: "pool1"
  pooling_param {
    pool: MAX
    kernel_size: 2
    stride: 2
  }
}
layer {
  name: "conv2"
  type: "Convolution"
  bottom: "pool1"
  top: "conv2"
  param {
    lr_mult: 1
  }
  param {
    lr_mult: 2
  }
  convolution_param {
    num_output: 50
    kernel_size: 5
    stride: 1
    weight_filler {
      type: "xavier"
    }
    bias_filler {
      type: "constant"
    }
  }
}
layer {
  name: "pool2"
  type: "Pooling"
  bottom: "conv2"
  top: "pool2"
  pooling_param {
    pool: MAX
    kernel_size: 2
    stride: 2
  }
}
layer {
  name: "ip1"
  type: "InnerProduct"
  bottom: "pool2"
  top: "ip1"
  param {
    lr_mult: 1
  }
  param {
    lr_mult: 2
  }
  inner_product_param {
    num_output: 500
    weight_filler {
      type: "xavier"
    }
    bias_filler {
      type: "constant"
    }
  }
}
layer {
  name: "relu1"
  type: "ReLU"
  bottom: "ip1"
  top: "ip1"
}
layer {
  name: "ip2"
  type: "InnerProduct"
  bottom: "ip1"
  top: "ip2"
  param {
    lr_mult: 1
  }
  param {
    lr_mult: 2
  }
  inner_product_param {
    num_output: 10
    weight_filler {
      type: "xavier"
    }
    bias_filler {
      type: "constant"
    }
  }
}
layer {
  name: "loss"
  type: "SoftmaxWithLoss"
  bottom: "ip2"
  bottom: "label"
  top: "loss"
}
I0611 23:02:44.984024 107401 layer_factory.hpp:74] Creating layer mnist
I0611 23:02:44.984048 107401 net.cpp:84] Creating Layer mnist
I0611 23:02:44.984060 107401 net.cpp:338] mnist -> data
I0611 23:02:44.984098 107401 net.cpp:338] mnist -> label
I0611 23:02:44.984112 107401 net.cpp:113] Setting up mnist
I0611 23:02:45.012686 107401 db.cpp:34] Opened lmdb examples/mnist/mnist_train_lmdb
I0611 23:02:45.012928 107401 data_layer.cpp:67] output data size: 64,1,28,28
I0611 23:02:45.013139 107401 net.cpp:120] Top shape: 64 1 28 28 (50176)
I0611 23:02:45.013154 107401 net.cpp:120] Top shape: 64 (64)
I0611 23:02:45.013162 107401 layer_factory.hpp:74] Creating layer conv1
I0611 23:02:45.013180 107401 net.cpp:84] Creating Layer conv1
I0611 23:02:45.013188 107401 net.cpp:380] conv1 <- data
I0611 23:02:45.013206 107401 net.cpp:338] conv1 -> conv1
I0611 23:02:45.013222 107401 net.cpp:113] Setting up conv1
I0611 23:02:45.089601 107401 net.cpp:120] Top shape: 64 20 24 24 (737280)
I0611 23:02:45.089649 107401 layer_factory.hpp:74] Creating layer pool1
I0611 23:02:45.089670 107401 net.cpp:84] Creating Layer pool1
I0611 23:02:45.089679 107401 net.cpp:380] pool1 <- conv1
I0611 23:02:45.089691 107401 net.cpp:338] pool1 -> pool1
I0611 23:02:45.089709 107401 net.cpp:113] Setting up pool1
I0611 23:02:45.089931 107401 net.cpp:120] Top shape: 64 20 12 12 (184320)
I0611 23:02:45.089969 107401 layer_factory.hpp:74] Creating layer conv2
I0611 23:02:45.089983 107401 net.cpp:84] Creating Layer conv2
I0611 23:02:45.089992 107401 net.cpp:380] conv2 <- pool1
I0611 23:02:45.090000 107401 net.cpp:338] conv2 -> conv2
I0611 23:02:45.090014 107401 net.cpp:113] Setting up conv2
I0611 23:02:45.090575 107401 net.cpp:120] Top shape: 64 50 8 8 (204800)
I0611 23:02:45.090595 107401 layer_factory.hpp:74] Creating layer pool2
I0611 23:02:45.090605 107401 net.cpp:84] Creating Layer pool2
I0611 23:02:45.090613 107401 net.cpp:380] pool2 <- conv2
I0611 23:02:45.090622 107401 net.cpp:338] pool2 -> pool2
I0611 23:02:45.090632 107401 net.cpp:113] Setting up pool2
I0611 23:02:45.090701 107401 net.cpp:120] Top shape: 64 50 4 4 (51200)
I0611 23:02:45.090711 107401 layer_factory.hpp:74] Creating layer ip1
I0611 23:02:45.090724 107401 net.cpp:84] Creating Layer ip1
I0611 23:02:45.090731 107401 net.cpp:380] ip1 <- pool2
I0611 23:02:45.090741 107401 net.cpp:338] ip1 -> ip1
I0611 23:02:45.090754 107401 net.cpp:113] Setting up ip1
I0611 23:02:45.094487 107401 net.cpp:120] Top shape: 64 500 (32000)
I0611 23:02:45.094504 107401 layer_factory.hpp:74] Creating layer relu1
I0611 23:02:45.094514 107401 net.cpp:84] Creating Layer relu1
I0611 23:02:45.094521 107401 net.cpp:380] relu1 <- ip1
I0611 23:02:45.094529 107401 net.cpp:327] relu1 -> ip1 (in-place)
I0611 23:02:45.094538 107401 net.cpp:113] Setting up relu1
I0611 23:02:45.094609 107401 net.cpp:120] Top shape: 64 500 (32000)
I0611 23:02:45.094619 107401 layer_factory.hpp:74] Creating layer ip2
I0611 23:02:45.094629 107401 net.cpp:84] Creating Layer ip2
I0611 23:02:45.094635 107401 net.cpp:380] ip2 <- ip1
I0611 23:02:45.094645 107401 net.cpp:338] ip2 -> ip2
I0611 23:02:45.094655 107401 net.cpp:113] Setting up ip2
I0611 23:02:45.094714 107401 net.cpp:120] Top shape: 64 10 (640)
I0611 23:02:45.094725 107401 layer_factory.hpp:74] Creating layer loss
I0611 23:02:45.094739 107401 net.cpp:84] Creating Layer loss
I0611 23:02:45.094746 107401 net.cpp:380] loss <- ip2
I0611 23:02:45.094753 107401 net.cpp:380] loss <- label
I0611 23:02:45.094763 107401 net.cpp:338] loss -> loss
I0611 23:02:45.094774 107401 net.cpp:113] Setting up loss
I0611 23:02:45.094785 107401 layer_factory.hpp:74] Creating layer loss
…
I0611 23:02:45.095645 107401 solver.cpp:154] Creating test net (#0) specified by net file: examples/mnist/lenet_train_test.prototxt
I0611 23:02:45.095680 107401 net.cpp:257] The NetState phase (1) differed from the phase (0) specified by a rule in layer mnist
I0611 23:02:45.095788 107401 net.cpp:42] Initializing net from parameters: 
name: "LeNet"
state {
  phase: TEST
}
layer {
  name: "mnist"
  type: "Data"
  top: "data"
  top: "label"
  include {
    phase: TEST
  }
  transform_param {
    scale: 0.00390625
  }
  data_param {
    source: "examples/mnist/mnist_test_lmdb"
    batch_size: 100
    backend: LMDB
  }
}
layer {
  name: "conv1"
  type: "Convolution"
  bottom: "data"
  top: "conv1"
  param {
    lr_mult: 1
  }
  param {
    lr_mult: 2
  }
  convolution_param {
    num_output: 20
    kernel_size: 5
    stride: 1
    weight_filler {
      type: "xavier"
    }
    bias_filler {
      type: "constant"
    }
  }
}
layer {
  name: "pool1"
  type: "Pooling"
  bottom: "conv1"
  top: "pool1"
  pooling_param {
    pool: MAX
    kernel_size: 2
    stride: 2
  }
}
layer {
  name: "conv2"
  type: "Convolution"
  bottom: "pool1"
  top: "conv2"
  param {
    lr_mult: 1
  }
  param {
    lr_mult: 2
  }
  convolution_param {
    num_output: 50
    kernel_size: 5
    stride: 1
    weight_filler {
      type: "xavier"
    }
    bias_filler {
      type: "constant"
    }
  }
}
layer {
  name: "pool2"
  type: "Pooling"
  bottom: "conv2"
  top: "pool2"
  pooling_param {
    pool: MAX
    kernel_size: 2
    stride: 2
  }
}
layer {
  name: "ip1"
  type: "InnerProduct"
  bottom: "pool2"
  top: "ip1"
  param {
    lr_mult: 1
  }
  param {
    lr_mult: 2
  }
  inner_product_param {
    num_output: 500
    weight_filler {
      type: "xavier"
    }
    bias_filler {
      type: "constant"
    }
  }
}
layer {
  name: "relu1"
  type: "ReLU"
  bottom: "ip1"
  top: "ip1"
}
layer {
  name: "ip2"
  type: "InnerProduct"
  bottom: "ip1"
  top: "ip2"
  param {
    lr_mult: 1
  }
  param {
    lr_mult: 2
  }
  inner_product_param {
    num_output: 10
    weight_filler {
      type: "xavier"
    }
    bias_filler {
      type: "constant"
    }
  }
}
layer {
  name: "accuracy"
  type: "Accuracy"
  bottom: "ip2"
  bottom: "label"
  top: "accuracy"
  include {
    phase: TEST
  }
}
layer {
  name: "loss"
  type: "SoftmaxWithLoss"
  bottom: "ip2"
  bottom: "label"
  top: "loss"
}
I0611 23:02:45.095887 107401 layer_factory.hpp:74] Creating layer mnist
I0611 23:02:45.095903 107401 net.cpp:84] Creating Layer mnist
I0611 23:02:45.095912 107401 net.cpp:338] mnist -> data
I0611 23:02:45.095926 107401 net.cpp:338] mnist -> label
I0611 23:02:45.095937 107401 net.cpp:113] Setting up mnist
I0611 23:02:45.098520 107401 db.cpp:34] Opened lmdb examples/mnist/mnist_test_lmdb
I0611 23:02:45.098706 107401 data_layer.cpp:67] output data size: 100,1,28,28
I0611 23:02:45.098789 107401 net.cpp:120] Top shape: 100 1 28 28 (78400)
I0611 23:02:45.098804 107401 net.cpp:120] Top shape: 100 (100)
I0611 23:02:45.098812 107401 layer_factory.hpp:74] Creating layer label_mnist_1_split
I0611 23:02:45.098826 107401 net.cpp:84] Creating Layer label_mnist_1_split
I0611 23:02:45.098834 107401 net.cpp:380] label_mnist_1_split <- label
I0611 23:02:45.098844 107401 net.cpp:338] label_mnist_1_split -> label_mnist_1_split_0
I0611 23:02:45.098856 107401 net.cpp:338] label_mnist_1_split -> label_mnist_1_split_1
I0611 23:02:45.098866 107401 net.cpp:113] Setting up label_mnist_1_split
I0611 23:02:45.098877 107401 net.cpp:120] Top shape: 100 (100)
I0611 23:02:45.098886 107401 net.cpp:120] Top shape: 100 (100)
I0611 23:02:45.098893 107401 layer_factory.hpp:74] Creating layer conv1
I0611 23:02:45.098909 107401 net.cpp:84] Creating Layer conv1
I0611 23:02:45.098919 107401 net.cpp:380] conv1 <- data
I0611 23:02:45.098929 107401 net.cpp:338] conv1 -> conv1
I0611 23:02:45.098942 107401 net.cpp:113] Setting up conv1
I0611 23:02:45.099313 107401 net.cpp:120] Top shape: 100 20 24 24 (1152000)
I0611 23:02:45.099342 107401 layer_factory.hpp:74] Creating layer pool1
I0611 23:02:45.099356 107401 net.cpp:84] Creating Layer pool1
I0611 23:02:45.099364 107401 net.cpp:380] pool1 <- conv1
I0611 23:02:45.099373 107401 net.cpp:338] pool1 -> pool1
I0611 23:02:45.099386 107401 net.cpp:113] Setting up pool1
I0611 23:02:45.099458 107401 net.cpp:120] Top shape: 100 20 12 12 (288000)
I0611 23:02:45.099468 107401 layer_factory.hpp:74] Creating layer conv2
I0611 23:02:45.099485 107401 net.cpp:84] Creating Layer conv2
I0611 23:02:45.099493 107401 net.cpp:380] conv2 <- pool1
I0611 23:02:45.099513 107401 net.cpp:338] conv2 -> conv2
I0611 23:02:45.099524 107401 net.cpp:113] Setting up conv2
I0611 23:02:45.100085 107401 net.cpp:120] Top shape: 100 50 8 8 (320000)
I0611 23:02:45.100121 107401 layer_factory.hpp:74] Creating layer pool2
I0611 23:02:45.100133 107401 net.cpp:84] Creating Layer pool2
I0611 23:02:45.100141 107401 net.cpp:380] pool2 <- conv2
I0611 23:02:45.100150 107401 net.cpp:338] pool2 -> pool2
I0611 23:02:45.100160 107401 net.cpp:113] Setting up pool2
I0611 23:02:45.100234 107401 net.cpp:120] Top shape: 100 50 4 4 (80000)
I0611 23:02:45.100242 107401 layer_factory.hpp:74] Creating layer ip1
I0611 23:02:45.100253 107401 net.cpp:84] Creating Layer ip1
I0611 23:02:45.100265 107401 net.cpp:380] ip1 <- pool2
I0611 23:02:45.100275 107401 net.cpp:338] ip1 -> ip1
I0611 23:02:45.100287 107401 net.cpp:113] Setting up ip1
I0611 23:02:45.104526 107401 net.cpp:120] Top shape: 100 500 (50000)
I0611 23:02:45.104543 107401 layer_factory.hpp:74] Creating layer relu1
I0611 23:02:45.104552 107401 net.cpp:84] Creating Layer relu1
I0611 23:02:45.104559 107401 net.cpp:380] relu1 <- ip1
I0611 23:02:45.104568 107401 net.cpp:327] relu1 -> ip1 (in-place)
I0611 23:02:45.104578 107401 net.cpp:113] Setting up relu1
I0611 23:02:45.104648 107401 net.cpp:120] Top shape: 100 500 (50000)
I0611 23:02:45.104657 107401 layer_factory.hpp:74] Creating layer ip2
I0611 23:02:45.104668 107401 net.cpp:84] Creating Layer ip2
I0611 23:02:45.104674 107401 net.cpp:380] ip2 <- ip1
I0611 23:02:45.104684 107401 net.cpp:338] ip2 -> ip2
I0611 23:02:45.104694 107401 net.cpp:113] Setting up ip2
I0611 23:02:45.104754 107401 net.cpp:120] Top shape: 100 10 (1000)
I0611 23:02:45.104765 107401 layer_factory.hpp:74] Creating layer ip2_ip2_0_split
I0611 23:02:45.104774 107401 net.cpp:84] Creating Layer ip2_ip2_0_split
I0611 23:02:45.104780 107401 net.cpp:380] ip2_ip2_0_split <- ip2
I0611 23:02:45.104789 107401 net.cpp:338] ip2_ip2_0_split -> ip2_ip2_0_split_0
I0611 23:02:45.104799 107401 net.cpp:338] ip2_ip2_0_split -> ip2_ip2_0_split_1
I0611 23:02:45.104809 107401 net.cpp:113] Setting up ip2_ip2_0_split
I0611 23:02:45.104818 107401 net.cpp:120] Top shape: 100 10 (1000)
I0611 23:02:45.104826 107401 net.cpp:120] Top shape: 100 10 (1000)
I0611 23:02:45.104832 107401 layer_factory.hpp:74] Creating layer accuracy
I0611 23:02:45.104846 107401 net.cpp:84] Creating Layer accuracy
I0611 23:02:45.104853 107401 net.cpp:380] accuracy <- ip2_ip2_0_split_0
I0611 23:02:45.104861 107401 net.cpp:380] accuracy <- label_mnist_1_split_0
I0611 23:02:45.104871 107401 net.cpp:338] accuracy -> accuracy
I0611 23:02:45.104881 107401 net.cpp:113] Setting up accuracy
…
